model.pth (torch, 652088 bytes, 10 tensors)

fc1.weight f4 [256, 214]
00000000: ffdb b73d bab1 3e3d 8cc2 cdbe efaf cdbd
00000010: c863 823c 32b2 5ebd 6cd6 56bc 29a8 893d
00000020: 30c5 e63c 5ecf 523d 3c29 fd3c 9e45 1b3d
00000030: a0af e63c 01eb 3fbd c8e6 a93c 6b70 813d
00000040: 29f1 55bd 6049 193c 4e84 42bd 12a0 2abd
00000050: f5ed 813d 80a6 543b 9814 a33c 0e13 433d
00000060: 9233 18bd b0cd 79bd e0ee 1d3b effe b63c
00000070: f12b a8bc bfdd 91bd 1c80 70be 4600 21bd
00000080: abc8 b73c 2099 d93c 70dd 0f3d e070 65bd
00000090: 0367 29bc 76a7 033e 2d77 1b3d ffb9 e9bd
000000a0: 2b22 18bd 0783 d1bd 5f83 adbd cea9 d7bc
000000b0: 807e ef3c eb77 c23a 997b efbd 348b 963e
000000c0: dd60 183d 8a36 8bbc e6d8 48be def5 25be
000000d0: d426 88be abca 0fbe 97ab dabd 9f57 2cbe
000000e0: a7f5 67be fee3 2c3d 0451 983e abf1 903d
000000f0: 74a7 6fbc 2d82 65be 61c8 6dbe f2d8 bdbd
00000100: 8f17 14be f3ab 88bd cf5b ce3d 90a1 343e
00000110: 4ac6 54bc d6cb 2a3c ba2b 213e 3469 95bd
00000120: a048 0ebe ac63 efbd 9c18 9dbe 3c92 1dbe
00000130: 2448 9b3e 269f 7e3d 7a0f a93c e253 d73d
00000140: 7b32 5a3d 5dca a13d 445c 09be ca36 1ebd
00000150: 11b9 59be b9a4 3a3d 97dc d63c 3257 793e
00000160: 1a4c dc3d 8313 5e3d 5872 d53c eebb 2c3c
00000170: 8d8f f7bd a115 a2bc 3ae5 d3bd dd7b 9a3e
00000180: 5cac 7c3d f1c8 853e aba3 dc3d 32e2 ab3d
00000190: 35fc a5bd 8064 22be 0a5a 37bd 4655 10be
000001a0: 97d0 e8bd 78d8 34bd bf48 bb3d e81e 623e
000001b0: 7ff5 cd3d 0ea0 683d 4ddc 81be 1fec 2ebe
000001c0: 8453 e83c 6680 21bd c78e d1bc 8685 4f3e
000001d0: 0f9d 5a3b 54cf 053d 169d a33d fbce 4abe
000001e0: 6d2f 2dbe 47c9 38be e704 67bd e620 b23b
000001f0: 0727 443e 0db4 ef3d e1f5 1e3e ad50 723e
00000200: cc3c c9bb 2eb1 c83d a8bc 37be 210f c8be
00000210: 94aa 43be e120 4db9 4bf9 483e 065a 8fbd
00000220: 514f 0a3e 49fb 9fbd 4103 85be d94a 56be
00000230: 4374 8fbd 23dd 14be 7633 a6bd f043 6a3d
00000240: 23ac fd3d b87f 1c3e 820d 203e 97a7 72be
00000250: e92a a0be 2ecc f53d cb8e c0bd 0108 64be
00000260: dd0b 80be 15be 94be 29df 863d d027 783e
00000270: fe29 85bd f7e8 b2ba c72e 97bd d0c6 65be
00000280: 1eb2 073d 3d98 f1be 3774 fcbe 3c77 9cbe
00000290: f2af 67bd 6452 2d3e ecd1 a53c 4bd6 2fbe
000002a0: 47d9 753e 2845 fabc 2e9a b9be 935c 73be
000002b0: ec2b c5be 9a1a bfbe 9ef9 b2be d2a6 ad3d
000002c0: 2e4f 553c 5231 1f3d adfb 43bd 8086 ecbe
000002d0: d092 80be dea9 64be 0c90 20be 4907 9bbe
000002e0: de91 693c 20d0 183e 67ba 123e c4c9 683d
000002f0: 649c c9be eb79 c4be 6fc7 97be e435 babe
00000300: 5d62 15be 08fe 8dbd 944f 9b3d dabc ef3d
00000310: 2f64 653d 3c9c ab3d 814d b9be ea50 c9be
00000320: dfb3 ffbd dbb7 89be 2c7e 63be b0f6 7fbd
00000330: 1a2b b7bd fe57 44bd 3368 c3bd f07c afbe
00000340: 9755 f5be 6d36 b6be 5b5f 0b3d 026e 5f3d
00000350: ac19 883d e934 e23b 97be 3e3b 98bc 28bc
00000360: e4ab 98bd 72a7 5bbd e872 363d 763e 6e3d
00000370: 996f 83bd 419d 843d fa03 3f3d e67f 72bd
00000380: 20c7 25bb 2798 07bd c872 623d 68e7 1ebc
00000390: 5036 96bb 5e3a 553d 630f 853d 8a83 033d
000003a0: d044 50bd 7851 83bd e693 283d 0a6a 393d
000003b0: c7bc 873d 80a1 4dbd 000c edb8 39de 3dbd
000003c0: da9c 68bd 4e3e 84bc d866 85bd 8912 18bd
000003d0: 3087 bb3b 7a64 263d 6a33 f2bc 1006 663d
000003e0: f70f 81bd d09c d6bb d4ed 62bc 6f1c 873d
000003f0: a9e2 ccbb 8cbe f23c 12df 243d 44b8 b7bc
0.08977508 0.046556212 -0.4018749 -0.10043322 0.01591672 -0.05436916 -0.013112646 0.06721527
0.028170198 0.051467292 0.030903451 0.03790819 0.028159916 -0.046854977 0.020739928 0.0632027
-0.05223194 0.009355873 -0.047489457 -0.04165656 0.06344215 0.0032447875 0.01990728 0.047625594
-0.037158556 -0.060987175 0.002409868 0.022338359 -0.020528765 -0.07122373 -0.2348637 -0.0393069
0.022434553 0.026562274 0.03512329 -0.05601585 -0.010339501 0.1285685 0.03795545 -0.11412429
-0.03714196 -0.102300696 -0.08472323 -0.026326086 0.029235125 0.0014836764 -0.11693496 0.2940308
0.03720175 -0.01699378 -0.1961399 -0.16207072 -0.26592124 -0.14042155 -0.106772594 -0.168303
-0.22652303 0.042209618 0.2974931 0.070773445 -0.014627326 -0.2241294 -0.2322097 -0.09269895
-0.14462112 -0.06673422 0.10076105 0.17639756 -0.012986729 0.010424575 0.15739337 -0.072954565
-0.13894892 -0.11688933 -0.30682838 -0.15387815 0.30328476 0.062163495 0.020637263 0.10514046
0.0532708 0.07899926 -0.13414103 -0.03862647 -0.21262003 0.045567248 0.026228232 0.24349669
0.10756703 0.054217827 0.0260555 0.010542853 -0.12087927 -0.019785704 -0.10346456 0.30172625
0.061687812 0.2612987 0.10773405 0.08392753 -0.08104745 -0.1585865 -0.044763602 -0.14095029
-0.1136791 -0.044151753 0.091447346 0.22082102 0.1005659 0.056793265 -0.2536339 -0.1708226
0.028360136 -0.03942909 -0.025580777 0.20265779 0.0033357774 0.032668427 0.07988946 -0.1980552
-0.16912623 -0.18045531 -0.05640116 0.0054360507 0.19155513 0.11704264 0.15523483 0.23663588
-0.0061412808 0.09799419 -0.1794306 -0.39074042 -0.19108039 -0.00019562572 0.19626348 -0.069995925
0.1350682 -0.07811601 -0.25979045 -0.2092699 -0.07004597 -0.14537482 -0.08115284 0.057193696
0.12386348 0.15283096 0.15630153 -0.23696743 -0.31282738 0.12001835 -0.094022356 -0.22268678
-0.2500905 -0.2905127 0.06585533 0.24233937 -0.0650215 -0.0013649751 -0.07381969 -0.22439122
0.03312885 -0.4718646 -0.49307415 -0.3055972 -0.05656428 0.16925961 0.0202417 -0.1717159
0.24008666 -0.030550554 -0.36250442 -0.23765783 -0.38510072 -0.37324983 -0.34956068 0.08479084
0.013019366 0.038865395 -0.04784744 -0.46196365 -0.2511201 -0.22330424 -0.1567995 -0.30278996
0.014255969 0.14923143 0.1432892 0.056833044 -0.3937713 -0.38374266 -0.29644343 -0.3636924
-0.14588304 -0.06933218 0.07583538 0.117059425 0.056003746 0.08379409 -0.36191943 -0.39319545
-0.124854796 -0.26898083 -0.222161 -0.06249112 -0.08943768 -0.04793548 -0.09541359 -0.34275007
-0.47916862 -0.355884 0.034026485 0.05454827 0.066455215 0.00690328 0.00291053 -0.0102988705
-0.074546605 -0.053626485 0.044543177 0.058165036 -0.0641777 0.06475306 0.04663465 -0.059204005
-0.002529569 -0.03310409 0.055285245 -0.009698726 -0.0045841113 0.052057616 0.064970754 0.032107867
-0.050846875 -0.06412023 0.041156672 0.045267142 0.06627803 -0.050202847 -0.00011303276 -0.046354506
-0.05679021 -0.01614299 -0.065137565 -0.03712705 0.0057229027 0.040623166 -0.029565532 0.056158125
-0.06301873 -0.006549455 -0.013850648 0.0659722 -0.006252606 0.029631875 0.0402518 -0.022426732

fc1.bias f4 [256]
00000000: fcc6 82bd 68a1 9f3c 3063 8c3c 5836 0e3c
00000010: 0acb 4cbe 4cc5 d2bc 365b a8bd 80c8 18bd
00000020: c313 87bd 6d1f 9abd 2756 1ebc e904 50ba
00000030: dfb2 433c 9a2f 06bd 0dad 9dbd fea5 9fbd
00000040: a5dc b2bd 109c acbb 6390 0a3d a06e f73b
00000050: 38cc 113e 6015 b9bd d28e 83bc aa72 de3c
00000060: e9c5 fa3d 832d 643e fccb 3dbb 4b4e 21bd
00000070: 91e2 d4bc 7192 35bd 5d40 b43c 1d63 17bc
00000080: 8f27 e4bc 1e55 dabc 3bbe 8b3c fb9a b5bd
00000090: 24eb ccbc 3e91 c23c 21f1 89bd c42f e23d
000000a0: 214b 10bd 9318 f7ba ebdc e4bd 105b 1fbd
000000b0: 208c 8a3c 215e 803c 8ce6 9fbd 1492 753e
000000c0: 9a79 94bc c8bc b73b 38cf 263d 8971 82bd
000000d0: 74f6 8cbd 85ea ff3c c25e e8bd ef7b 4fbc
000000e0: 5560 10be 249f 383e 47e5 32bd 67f6 91bd
000000f0: 9895 0bbb 5de9 02be 09da 223d d13e 373c
00000100: 2829 c33c 06d4 09bd ff1b 62bd 793e e8bd
00000110: 058b 8cbd 1840 26bd 5f43 59bd b49e e5bd
00000120: b01f 503d 6f2c e53c ef36 273d dfd7 403b
00000130: 05b3 993c 7845 c43c 2708 a7bd 8198 55bd
00000140: 6e3b b8bd 28aa 59bd b3b2 6bbd e0fb 71bd
00000150: 6685 30bd 95e1 8cbd 4190 24bd c379 153d
00000160: a3fb e4bd 4dd7 873d ec20 03bd e7ae b4bd
00000170: 7177 96bc 1327 8dbd 46a7 f2bc 6be4 56bb
00000180: eab3 fe3c a763 323c bf9b dabc 5034 f53c
00000190: c999 d6bb f197 93bd b9ae 233e e000 0cbc
000001a0: b80b ad3d 6a3b 923d f6b0 7cbb d68d 51bb
000001b0: 4a67 343e 2282 9fbd 9aaf 343d 9906 e43c
000001c0: 82cc d5bd 8813 48bc 52a5 6d39 7eee 653c
000001d0: 185c aebd b529 723b 401d f8bd cf37 6939
000001e0: 71ac 9d3b ea71 e23c bc56 7c3e 94f9 243c
000001f0: 1acd 02bd 0d16 d4bc beec 813c aa05 25bd
00000200: c66d 8ebd 0f7e bc3c e788 69bd 0dd4 2cbd
00000210: 863f 28bd 6a84 a3bd 98ad 0c3d 0f26 8b3c
00000220: a3f8 d8bc 036b 93bd 2169 89bc fd15 4cbc
00000230: b674 003d 4003 c3bd 061e fbbc b3ff 1f3e
00000240: ddd8 973c da3b 893c 8762 86bd b2e2 a93b
00000250: da0d 1ebe 3682 93bd 2aa2 19bd d59f afbd
00000260: b192 adbc d399 67bc cd7f e9bd a2fe 9c3b
00000270: 7f02 b5bb 9755 9bbd a445 0dbd e1ad 1a3e
00000280: 44b8 63bd d5be 8a3d 281a b33d 4021 053d
00000290: b093 2bbd 6e68 ec3c 5135 acbd 37ea eebc
000002a0: 12d0 eebd 83e0 873d 3f59 7ebd bd1d 0c3c
000002b0: 1543 8dbd 08ff dcbd 499c a93c 5cd1 98bd
000002c0: 9dfc 98bd cb00 553c 63d2 29bd bbf3 8bbd
000002d0: 24d2 afbc 8055 7b3c d9f1 adbd 7ae9 763e
000002e0: b3d8 46bd 9a2b 6abd 0f8b b3bd 947b 08bd
000002f0: 0b5a 55bd f29d e3ba 0e1a a3bd 6574 bebd
00000300: bc64 eebb 5c69 023e 8c57 dbbd 8645 84bc
00000310: 66ea 5fbd a8ff 8bbd 57f0 5ebd 3c3f fd3c
00000320: 22a4 8ebc d3cb 00bd ff32 20bd 9c96 c6bd
00000330: 0cb9 4b3e 433d e5bd a5ce 71bd 446c 57bd
00000340: 8ec1 fc3a c0bf d0bd 219e 583d 74bf f8bd
00000350: b8d8 6c3c 3db4 85bd c06c 5bbd b604 df3d
00000360: df16 d0bd 1930 fdbc 02b7 dabb 60ed 79bd
00000370: 6e15 a3bd c7eb 51bd e1e5 5bbd 45b3 563d
00000380: 32a8 b8bd e369 2dbd 1f76 0cbd 96b6 813b
00000390: 47d3 583c 7571 20bd fa32 5cbd 5186 90bd
000003a0: f30a 8dbc f563 c6bd 20cc a13c 971d e5bd
000003b0: 25ac 2abe 58c3 963c 7bad 1f3b 57a1 bbbb
000003c0: 54ef bdbc 66d4 483e fa6c 643d 79fd 9cbd
000003d0: ecde bfbb ff91 fc3b 0c1c b5bd dd03 00bd
000003e0: e1f9 c5bb 64c8 583d 0526 f3bc 1d07 f43c
000003f0: 4289 393d 65eb a6bc 01de b13b 388b 77bd
-0.063856095 0.019486144 0.01713714 0.008679949 -0.19999328 -0.025728844 -0.08220522 -0.037300587
-0.06595566 -0.07525525 -0.009664095 -0.0007935302 0.011944502 -0.03276024 -0.076990224 -0.07795332
-0.08733491 -0.0052676275 0.033829104 0.0075510293 0.1423806 -0.0903728 -0.016059313 0.027154285
0.122447796 0.22282986 -0.0028960695 -0.039381307 -0.025986942 -0.04432911 0.022003347 -0.009239939
-0.027850894 -0.026651915 0.017058482 -0.08867451 -0.025014468 0.023750897 -0.06735445 0.11044267
-0.0352279 -0.0018851928 -0.11174949 -0.038905203 0.01691252 0.015669884 -0.07807645 0.23981506
-0.01812439 0.0056072213 0.040724963 -0.06369311 -0.06882945 0.031239757 -0.113461986 -0.012663825
-0.14099248 0.18029457 -0.043675687 -0.07127076 -0.0021298882 -0.12784334 0.039758716 0.01118441
0.023823336 -0.033649467 -0.05520248 -0.11340041 -0.06862453 -0.04058847 -0.053042766 -0.11211911
0.05081147 0.02797529 0.040823873 0.0029425544 0.018762121 0.023958907 -0.08155852 -0.052147392
-0.0899571 -0.05314079 -0.057543468 -0.059078097 -0.04309597 -0.06878964 -0.040176634 0.036493074
-0.111808084 0.06632862 -0.03201382 -0.088224225 -0.018367501 -0.068922184 -0.029620778 -0.0032789956
0.03109165 0.010888017 -0.026685594 0.029932171 -0.0065490943 -0.07206715 0.1598462 -0.0085451305
0.08449501 0.071402386 -0.0038557625 -0.003197541 0.17617527 -0.07788493 0.04411278 0.027835177
-0.104393974 -0.012211688 0.00022663668 0.014033912 -0.08513659 0.003695113 -0.12114954 0.00022241402
0.0048118164 0.02764221 0.24642462 0.01006927 -0.03193388 -0.02588942 0.015859958 -0.040288605
-0.06954531 0.023009328 -0.057015326 -0.042194415 -0.041076206 -0.0798424 0.03434524 0.016985921
-0.026485747 -0.07198145 -0.016773762 -0.012456414 0.031361304 -0.09522104 -0.030653965 0.15624885
0.018536026 0.016752172 -0.06561761 0.005184495 -0.15434971 -0.0720257 -0.037508167 -0.085754074
-0.021188112 -0.014135796 -0.11401329 0.004791097 -0.005523979 -0.07584684 -0.034490243 0.15105392
-0.05559565 0.067746796 0.08745223 0.032502413 -0.041888893 0.02885839 -0.08408607 -0.029164417
-0.1166078 0.06634619 -0.06209683 0.008552012 -0.068975605 -0.10790831 0.020704405 -0.07461807
-0.07470057 0.013000677 -0.041460406 -0.06833597 -0.021462508 0.015340209 -0.084933944 0.24112502
-0.048546504 -0.057170488 -0.08766758 -0.03332098 -0.052087825 -0.0017365797 -0.07963954 -0.09299544
-0.007275192 0.12735504 -0.107100576 -0.016146433 -0.0546669 -0.06835872 -0.054428425 0.030913942
-0.017412249 -0.031444382 -0.039111134 -0.09696695 0.19894809 -0.11193325 -0.059034962 -0.052593485
0.0019283758 -0.101928234 0.05288518 -0.12145892 0.014455967 -0.06528518 -0.05357051 0.108895704
-0.10160612 -0.030906724 -0.0066746483 -0.061017394 -0.07963072 -0.051250245 -0.053686026 0.05241706
-0.09016456 -0.04233731 -0.034292337 0.0039585335 0.013233966 -0.0391707 -0.053759553 -0.07056869
-0.017217135 -0.09687034 0.019750655 -0.111872844 -0.1666723 0.018403694 0.0024364877 -0.0057260203
-0.02318541 0.19612274 0.05576799 -0.076655336 -0.005855432 0.007707834 -0.0884324 -0.031253684
-0.006041751 0.052925482 -0.029681215 0.029788548 0.045296915 -0.020375917 0.0054280763 -0.060435504

fc2.weight f4 [256, 256]
00000000: cd25 8e3d 8938 12bd 28a6 013c 6cc4 f9bb
00000010: 61eb 8a3d 05b3 8a3d 5702 d23c 7a3b 913c
00000020: b832 ec3c 2558 57bd 4827 73bd 8647 cd3c
00000030: c0d3 4cbb c66d 94bd c60c 3dbc 54c2 39bd
00000040: dfb6 febb f631 9ebc cede 5c3d 060c 5cbd
00000050: 0c24 3a3e 94a4 21bd d95c 603d 76ee 9639
00000060: bee3 cebd 5d40 d4bd 6c6f fbbc 80c9 4abb
00000070: e2a9 533b f46c 433c c3b8 d03c 036c b5ba
00000080: e8a6 dabc f8f2 033d 54be 14bb 55a7 d1bc
00000090: 9835 763d 826c 453d fe9e 123c 794e a93d
000000a0: bba6 ad3c c35d c7bb d824 d0bb e0e1 32bc
000000b0: dddf 943d 7884 c03c 113e 533d 6c4c a3bd
000000c0: 13fa eebb 00ff ad3c 988b 23bc 12c8 fd3a
000000d0: a3e3 2bbc 642e 133e 75d3 7a3c 01d5 883b
000000e0: 6a8d e7bc 0909 afbe 9838 ca3c bb8c 853d
000000f0: 399c eebd cc63 a33d 86c8 0b3d dc66 84bb
00000100: e222 35bd 1857 263d 6e4e 083d 44dc 4c3c
00000110: d986 24bd 3837 44bd 90b7 89bc 969c 71bc
00000120: 807d 743b 7fea 153d 3dd1 2f3e f993 38bd
00000130: 49f7 9cbd da1f 6c3c 8588 983d edb5 8d3d
00000140: 63a7 00bd ed8a 323d 7b03 79bc 1efe 37bc
00000150: 478d 1bbe 474f 94bc 203e eabc a520 93bc
00000160: f589 3f3c 2260 0cbd b04e 96bb 9dee 01bd
00000170: 335c bd3c 5b2e 163e f48e 0bbd 7176 293c
00000180: cabe 08bd 625f 99bc 2df9 07bd 60e7 b1bc
00000190: b055 cc3c 3013 b43b 818b 0abe 3e93 50bd
000001a0: c602 b8bc e925 b33d 0dee b93c d589 063d
000001b0: c38c 863e 1314 1b3c de66 25bd 00e4 003d
000001c0: 7d20 563d 7889 2e3d 9a6e c1bd e314 35bd
000001d0: d231 12bd 2f66 af3c c8d1 d1bb 39f2 4fbc
000001e0: 87c1 cd3c db41 973c 1161 14bc f7ee a2bb
000001f0: c619 0c3c fdda 17be 3a0e 32bd 5f3b febd
00000200: 3bb6 003d a503 02b9 429e e33c e4bc f3bc
00000210: c999 4f3d 9b41 72bd 1065 8b3c 89eb b33d
00000220: 78c1 37bd 54f0 86bc dd81 903c 6701 a53d
00000230: 1043 28bd 3438 e5bc d04a 2c3c 752d 0dbe
00000240: d67c b13d 14c3 913c 0024 76bc 9937 003e
00000250: 7190 01be 247d fe3b e4d6 263c cc3f 373b
00000260: 9738 b3bd 1fb8 43bb af17 a93d 7e9f 7dbd
00000270: 6219 ce3d fa09 4bbc 5cc8 733d 20db f03d
00000280: 79ca 7dbd 38f7 75bc 1243 f53d 34a0 253d
00000290: 9633 2dbd 1346 6e3d e268 39bd c09a 1e3d
000002a0: bc5e c03b 0696 e03d b2f4 c5bd 4502 4fbd
000002b0: c1e9 0abd c4e0 3fbb 0c14 db3c 941f f83c
000002c0: fef6 253d 3207 7539 2819 f0bc 48c3 4bbd
000002d0: 0707 9cbd a30c e4bc bde2 21bd 9d40 1fbd
000002e0: be70 433e e6f1 8fbb a300 873c 1cd6 22bd
000002f0: 5916 24bc 5dbc 9bbd 4491 8ebd c857 e7bd
00000300: c4d6 1f3d a581 16bc 9c7b dcba 06c1 233d
00000310: 0d3b e3bc 9d7d f7bc 93c6 213e b651 fe3b
00000320: 22eb 503c 4160 28bd 60bc 583d 3e21 a83d
00000330: c7ef a73d fad2 ae3c 6297 21bd 97ff 67bd
00000340: e66c dc3b ec7a 8ebd ed10 47bd 9dd5 9cbc
00000350: 8ca1 cc3c b370 6a3d 86f2 823d 8957 433d
00000360: 9be0 0f3e 4e1b 873c 9060 4ebd a346 523d
00000370: 89b3 ef3c 1853 f7bb 93e0 383d 5144 a8bd
00000380: 1fe0 3b3d 4204 423c 6366 b93d 9521 403d
00000390: 5433 e3bc 12d0 80bd f367 c1bb a444 bb3c
000003a0: 8d35 6ebd 0df1 afbc 0061 3ebc ab66 543d
000003b0: 9dbe 393d fc1f ce3c 2193 1fbc 4e02 7bbd
000003c0: 9a4b 173d 3a13 f13a 3fd5 aa3d fd16 0fbd
000003d0: f004 b2bc d59a 84bd e49f 76be d240 f63c
000003e0: 118f 05bd 8b4a 963d 5011 1cbd 22bb ce3c
000003f0: 43cb f7bd 30ee 11bd 152d 57bd 06d4 a6bd
0.06940804 -0.035698447 0.00791315 -0.0076222923 0.06783176 0.067724265 0.025635881 0.017728556
0.028832778 -0.052574296 -0.059363633 0.02505852 -0.0031254143 -0.072475 -0.01153869 -0.04535134
-0.007773265 -0.019310933 0.05392342 -0.053722404 0.18177813 -0.039463595 0.054776046 0.00028787897
-0.10102032 -0.10363839 -0.030692779 -0.0030942857 0.0032297303 0.011927832 0.025478726 -0.0013841394
-0.026690915 0.032214135 -0.0022696452 -0.025592485 0.060109705 0.048199184 0.0089490395 0.082669206
0.021197667 -0.0060841753 -0.0063520484 -0.010918111 0.07269261 0.023500666 0.051572863 -0.07973561
-0.0072929948 0.021239758 -0.009982012 0.0019361994 -0.010491285 0.14373165 0.015309204 0.0041757827
-0.028265674 -0.3418658 0.02468519 0.06520983 -0.11650891 0.07978019 0.03412678 -0.004040582
-0.04422272 0.040610403 0.03327792 0.012503687 -0.040167663 -0.047904223 -0.016811162 -0.014746806
0.003730625 0.036600586 0.17169662 -0.045062993 -0.076643534 0.014411891 0.07447914 0.06919465
-0.031409632 0.04358952 -0.015198584 -0.01123002 -0.15190612 -0.018104209 -0.028594077 -0.017959902
0.011690606 -0.034271367 -0.004587017 -0.0317217 0.023115253 0.1466612 -0.034071878 0.01034318
-0.033385076 -0.01872224 -0.033196617 -0.021716774 0.024943203 0.0054954514 -0.13529779 -0.05092167
-0.02246226 0.08747465 0.02269652 0.03284629 0.26279268 0.009465235 -0.040381305 0.031467438
0.052277077 0.04261157 -0.09444924 -0.044209372 -0.035692044 0.02141103 -0.0064031817 -0.012692028
0.025116695 0.01846402 -0.009056346 -0.0049723345 0.008551067 -0.14829631 -0.0434706 -0.12413668
0.03142379 -0.00012399124 0.027785424 -0.029753156 0.05068377 -0.059144598 0.017015964 0.08785159
-0.04486224 -0.01647202 0.017640049 0.08056908 -0.04107958 -0.027980901 0.010515884 -0.13786872
0.08666389 0.017793216 -0.0150232315 0.12521209 -0.12652756 0.007766383 0.01018307 0.002796161
-0.08751028 -0.0029864383 0.082564704 -0.06191968 0.10063435 -0.012392515 0.05951725 0.11760545
-0.06196067 -0.015012555 0.11975683 0.040435985 -0.042285524 0.058172297 -0.04526604 0.0387218
0.005870668 0.10966115 -0.096658126 -0.050539274 -0.03391433 -0.0029278258 0.026742958 0.030288495
0.040518753 0.00023367701 -0.02930887 -0.04974678 -0.07618528 -0.027838057 -0.039522875 -0.03887998
0.19085976 -0.00439285 0.016479796 -0.03975497 -0.010015094 -0.07604287 -0.06961301 -0.1129604
0.039023176 -0.009186183 -0.0016821506 0.039979003 -0.027738119 -0.030211264 0.15798406 0.0077612055
0.0127513725 -0.04110742 0.052914023 0.082094654 0.08200031 0.021340836 -0.03945101 -0.056640234
0.006726849 -0.06957039 -0.048600126 -0.019144827 0.024979375 0.057236385 0.06393914 0.047690902
0.14050524 0.016492512 -0.050385058 0.051336896 0.029260414 -0.0075477473 0.045136046 -0.08216155
0.045868035 0.011841835 0.09052732 0.046907026 -0.027734436 -0.06289686 -0.0059022843 0.022859879
-0.05815654 -0.021477247 -0.011619806 0.051855724 0.0453478 0.025161736 -0.009739668 -0.061281495
0.036937334 0.0018392571 0.08341455 -0.034934033 -0.02173087 -0.06474844 -0.24084431 0.030060206
-0.032607142 0.07338437 -0.038102448 0.025235716 -0.12099316 -0.035627544 -0.052533228 -0.08145909

fc2.bias f4 [256]
00000000: 1d38 f43e 0a89 4b3f e571 bf3d c3cd 923e
00000010: 01f8 24be 7628 4abe cb25 8c3d 7f77 b63d
00000020: 26df 0b3f 05b9 613e a80a 0cbd 8595 313d
00000030: d2c8 003f 8049 91bd e210 40be 2d2b 3f3e
00000040: 8fbc 6d3e c5bb 7cbe fff1 4c3e b0e0 5cbe
00000050: f332 323f 57fd bdbd 7d56 003f 65c7 6fbd
00000060: 19c1 443e a4a7 2c3f 20aa a2bd 812f 633e
00000070: f6ed ba3c 7c72 383d 896d e3be e98d 00be
00000080: 4003 4b3f 6840 e03e a699 9e3e 1d0c 1e3f
00000090: e501 773f 0dd9 843f 7220 d73e a105 0ebe
000000a0: 03da 123f a35f 05be d896 e63e 23b3 2c3f
000000b0: daca 70be 6081 363f 7e7c 3c3f 14db 743f
000000c0: 5087 333e cb61 023f b110 1cbe 2f25 7dbe
000000d0: 3856 173f b22b 97be 6de5 2c3f b936 50be
000000e0: f82f 7cbd 4612 60be 2833 063f 9c06 90bd
000000f0: 77c9 8dbe 4c24 21be 247f dc3e 2e3d 793f
00000100: 5500 723f 2d2c d83d 45d8 47bc 0540 ae3e
00000110: 2b4f b8bd 095d b2be e133 0a3f ddbd 693e
00000120: f076 0c3f 7974 8b3e a268 433f 4ad4 2c3f
00000130: f8f0 6ebe 2909 063e 9c65 7ebe 7c04 f43d
00000140: 886d 233e 624f cc3e a541 6d3c 262e 7abe
00000150: 8778 14be 2558 a53d 597f 8d3e 5cc1 de3e
00000160: 9122 233e 185b 513f 5682 82be 250f d33d
00000170: d3e8 94bd 2420 6fbe 98c5 4d3f 140a 7a3f
00000180: 5a57 4c3e de8e a43e 6094 6e3f 52c6 443f
00000190: f690 423d 9355 753e 187b eabd dd6e 16be
000001a0: f6b9 2c3e c8c0 babd bfcc 8d3e 8cbd 313f
000001b0: cfab 5c3c 5b7f 7e3f c95c b7be e0ad e73e
000001c0: 6c88 5fbe b3d4 d93b bb9e a2be d057 523d
000001d0: a8bb c93d 1db6 073d f875 393f e6de dc3e
000001e0: 14de 233f d54f 5c3e 6837 733e 0a6d 27be
000001f0: 80c6 183f 4dad 30be a0db a63e 1591 5cbe
00000200: 7618 cfbe ab52 8abe 4271 60be 0d8c b43e
00000210: 9c10 7f3e dd5b 28be b06a 803f cc1c 213f
00000220: 00d1 d3be 3354 0a3f f1b5 433d 7216 1d3d
00000230: 4809 433f 1584 4a3e 0e20 733f 4898 413e
00000240: d7ec 333e 680b 433d 2e28 803f a8f1 3e3f
00000250: 456a e43c 3828 9a3e 7c98 103d 5f68 873e
00000260: 3f28 fc3e 5eb8 b43e 8c59 78be e173 63be
00000270: d395 bc3e 783f 3f3f ed92 44be dcd4 6bbe
00000280: 1e87 363f 13ee 053f f01f ecbd 8eaf e7bd
00000290: 9c55 433f 40a8 493c ca60 a53e 333a 0d3e
000002a0: 2402 073f 0a9c fc3e a0de 133f d4b1 43be
000002b0: 9fb9 9abe c547 143c d371 6ebe 4a6c 343f
000002c0: 6823 cb3e b6d4 88be 131a 113e c2c6 583f
000002d0: d52b 43bd 39ff b0be 849d 423f 4b46 ba3d
000002e0: aad7 933d f7b8 8e3e 5192 d2be 06b4 903e
000002f0: 91e4 713e c9f5 883f e14e 303f 28db ce3e
00000300: 5148 acbe 4da8 c93d a91f 9f3e 0315 bb3e
00000310: 31a2 683e b6f3 5ebe d601 013f ded7 793f
00000320: c7e1 debd ec1e 26be 52bb b1bd bd4b f63e
00000330: 3682 573f 0f94 c9be b4b0 fb3c 47c5 4bbe
00000340: 168a d2be 3e8a bd3e da81 923d 6aa8 183e
00000350: b3f3 543d 675f 0f3f 0857 823f 374f 423f
00000360: 6dd2 24be 9eb8 f33d c36e 503f 4f7b f43e
00000370: 58ad 203f f83c 4a3f ddad 90bd 3002 3a3e
00000380: 645c 223e 8b25 673e a421 683e ee28 883e
00000390: 2fd5 c33e dd84 303e 6522 06bc ca10 1cbe
000003a0: a6f5 253f 335b 78be e51b dbbd c14a 2d3d
000003b0: b744 39be 1303 dfbb d71d 08be e743 cb3d
000003c0: a740 0c3f 4642 a1be bfad 2cbd 245e 373f
000003d0: be28 2d3f 2d76 70bd 7cd7 443f 0414 2fbe
000003e0: f3a7 5c3f 2b91 833f d957 e63e 47d6 87bd
000003f0: 844d 323f cbbd 3f3d 82aa ff3d 7007 0ebe
0.4769906 0.7950598 0.093478955 0.2867261 -0.16110231 -0.19741997 0.06843146 0.08909511
0.5463737 0.22043236 -0.03418985 0.043355484 0.5030643 -0.07094097 -0.1875644 0.18668814
0.2321646 -0.24681003 0.20014189 -0.21570086 0.6960899 -0.09276836 0.5013197 -0.058539767
0.19214286 0.674433 -0.07942605 0.2218609 0.022818547 0.045031056 -0.44419506 -0.12554134
0.79301834 0.43799138 0.309766 0.61737233 0.96487266 1.0378739 0.4201694 -0.13869335
0.5736391 -0.13024764 0.4503696 0.6746084 -0.23514882 0.7129116 0.7362746 0.95646787
0.17532086 0.5093047 -0.15240742 -0.24721216 0.59115934 -0.29525524 0.67537576 -0.20333375
-0.061569184 -0.21881971 0.5242181 -0.07032511 -0.27692768 -0.15736502 0.4306575 0.9735898
0.94531757 0.10555301 -0.012197559 0.34033218 -0.08999475 -0.34836605 0.5398541 0.22826333
0.54868984 0.272373 0.7633153 0.6751143 -0.2333411 0.13089432 -0.24843448 0.11914918
0.15959752 0.39904314 0.014480983 -0.24431667 -0.14499103 0.08073453 0.2763622 0.43506896
0.15931155 0.81779623 -0.25490063 0.10305623 -0.0727097 -0.23352104 0.8037963 0.9767163
0.19955197 0.3214025 0.9319515 0.7686511 0.047501527 0.23958425 -0.114492595 -0.14690728
0.16867813 -0.09118801 0.2769527 0.6942985 0.013468697 0.9941308 -0.35812977 0.45249844
-0.21829385 0.00664767 -0.31761727 0.051353276 0.09850246 0.03313266 0.7244563 0.43138808
0.6401074 0.21514829 0.23751605 -0.16350189 0.59677887 -0.17253609 0.32589436 -0.2153972
-0.4044835 -0.27016196 -0.21918204 0.352631 0.2490868 -0.16441293 1.0032558 0.62934566
-0.41370392 0.5403473 0.047780935 0.038351484 0.7618604 0.19776948 0.94970787 0.18905747
0.17570816 0.0476183 1.0012262 0.7458749 0.027882705 0.3010881 0.03530167 0.26446816
0.49249455 0.3529691 -0.2425291 -0.22212173 0.36833057 0.7470622 -0.19196673 -0.23030418
0.7129992 0.523164 -0.11529529 -0.11312781 0.76302505 0.01230818 0.32300407 0.13791732
0.5273764 0.49337798 0.57761574 -0.19110805 -0.30219743 0.009050314 -0.23285608 0.70477736
0.3967545 -0.26724786 0.14170103 0.8467828 -0.047649223 -0.3456972 0.760216 0.090954386
0.07218869 0.27875492 -0.41127256 0.28262347 0.23622347 1.0700008 0.6887036 0.40401578
-0.33648923 0.09846554 0.31078842 0.36539468 0.22718121 -0.21772656 0.50393426 0.9759501
-0.10882907 -0.16222733 -0.08678307 0.4810466 0.8418306 -0.39370772 0.030723907 -0.19899474
-0.41120976 0.37019533 0.071536735 0.14907995 0.051990222 0.5600495 1.018281 0.7590212
-0.16095896 0.11900447 0.8141901 0.47750327 0.627645 0.7899928 -0.07064412 0.18164897
0.15855557 0.22572915 0.22669083 0.26593727 0.38248584 0.17238183 -0.008186911 -0.1524078
0.64827955 -0.2425354 -0.1069868 0.04230762 -0.18092619 -0.0068057864 -0.13292633 0.09925061
0.5478615 -0.31495875 -0.042157885 0.7162802 0.6764029 -0.05870645 0.76891303 -0.17097479
0.8619377 1.0278677 0.44988897 -0.06632667 0.6964953 0.04681186 0.12483694 -0.13870025

fc3.weight f4 [128, 256]
00000000: 9351 2a3e 69f2 223e d872 d0bd 9306 32bd
00000010: 8b25 7e3c 7de1 0dbd ed03 803e 59bd 293e
00000020: dcc0 85bd 8b85 bbbd bd04 d9bd 5b7a e13d
00000030: fb9f 7c3c 310b 5dbd be70 40bd be83 bd3e
00000040: 9835 fe3c 8293 2fbd 415d cc3d 8397 2b3d
00000050: ac29 c23d 99ad 3cbd bfb6 273e 670c f3bc
00000060: fa6f a4bd 9956 c83e b582 d2bd bcb9 a1be
00000070: 64d9 d6bd 1b37 1d3e dbd4 b43d 4146 133d
00000080: ba04 80bd 4810 b53e 6fab 863d 6b75 103f
00000090: 71fa a73e 7ee6 853d 357b dfbe e2e5 aa3c
000000a0: e7ac 173e 162d 4f3d 9186 793e a800 debd
000000b0: 4877 08bd fff1 483e 7829 a7bd 748f 4d3d
000000c0: 8cbd 9fbe 4e79 8a3b 8189 e1bb 7728 c5be
000000d0: fc65 083e 3c37 0f3d e6f9 043e 00e6 0dbc
000000e0: 0599 2abc 1d87 433d 043c e33e 9e56 393b
000000f0: c92d cc3d 4809 b53e 5d9c 803e 4441 343d
00000100: 7c94 013e 0b95 32be 303f c6bd ca8a 883e
00000110: 5039 7b3e 7b88 63be ed60 fabd c33a 103e
00000120: 17a2 893e 8101 efba fe72 553e 7827 553d
00000130: 3c51 d9bd ff5f ce3d cc07 01bf d0f8 a7bd
00000140: 5f30 fdbc 8667 a63d 2540 10bc ac04 0abf
00000150: d556 9fbd 67af 0b3e 7527 d33d 7ef8 89bd
00000160: e571 51be 850a 7c3d 4969 d63c 7ebd 0c3e
00000170: 2a54 a5bd 23a4 07bd e304 febd 6c13 27bb
00000180: 7e42 62be 97c8 a6be ebd9 f33c 8eac b43e
00000190: 4fd9 3e3e e728 a0be 1ff1 733d 686a d2bd
000001a0: 135c 0a3e 84d1 44be 7958 b13e ce68 e63e
000001b0: f39f 4cbe 2ed4 963d affc f2bc 4a62 0ebd
000001c0: f202 bd3d 550c 82be 8913 a1be e2c1 513e
000001d0: 64d7 4bbd d037 283d 3e80 85bd b8b8 3b3e
000001e0: 12bc a53e 50ba a1bd ca63 083e 3251 bdbd
000001f0: 8bea f93d 2a39 91bb 6c3a 3dbe 11ed 7b3d
00000200: e7fa 573e 5532 36bd 6cf2 623c 59bd 5d3e
00000210: cbb9 0dbe 9c38 bd3e 127f cc3e 279e 9abe
00000220: 8c40 f4be 931a e0bd af87 d83e 8805 9c3d
00000230: b82d 973e 0302 c23e 5a24 203d a51e f23c
00000240: 24dc 34be 7188 043d 7c9b d03d 2d7a 9a3e
00000250: 6001 333e 3444 af3e d5bb b7bd 6472 56be
00000260: d7f0 d1ba 59b4 18be b86b ff3d 12f2 07bc
00000270: 4579 21be 1b38 8ebd 288a 033c 6374 d23d
00000280: 97fe 85bb b422 d9bd ab0a 1dbe 7e7a 243e
00000290: d261 2b3e edf7 cc3c aa3d f23d 7cf8 90be
000002a0: 02f3 9cbd b200 193e 09e6 ab3d 8d6f ce3b
000002b0: c665 a83d 46b5 83bd 15d5 4dbc 74a6 843e
000002c0: d116 ae3d b510 2f3e a04c f73c cbc4 203e
000002d0: 3452 f33c 5cd7 6c3c 5cf0 523e 5194 aa3d
000002e0: 9f04 a93d c34c 1fbe 081f 06be 66a5 a7bd
000002f0: 13b3 6a3e aa7d 583e a742 8dbe a676 ea3d
00000300: da03 65be 219e f33c b72c 8dbd ee78 45bd
00000310: c040 84be ace3 eebc 77ac 6d3e 6f3d 643e
00000320: c368 45bc 69fc 89bd 5f27 fdbd e16e be3d
00000330: 02d3 063d 7a55 903d 9772 2b3d 6232 e7b9
00000340: c4dc 1b3d d513 f83d 93dd 83bd ae0d a0bd
00000350: 3036 fa3c d270 b23e d9af 3e3e feb9 2a3e
00000360: fbef 0fbf ed75 e73d 0a1b 823d 83f5 953e
00000370: 8c8b a33d 1fc3 a93d d021 70bd 2be9 3b3c
00000380: 5ab9 b73e 8a71 b1be c319 fb3e 5b0b fc3d
00000390: 1a58 45be 7e38 183e 6fd6 cc3e c626 c1bd
000003a0: 64d9 60be 4b77 96bc 77ca bebc c5f0 c23c
000003b0: 7166 35bd 12b9 29be 8f22 cabc a9d4 3fbe
000003c0: aae3 cabd a68b 8bbe 70c3 903b f9f8 59be
000003d0: fbdf d13d 22b7 95bd baa0 10be f5c6 3cbd
000003e0: b64e 693e fdf1 f03e e36b bc3c 1309 c63c
000003f0: 759f ad3d af1c 753e 41e8 163e 5df4 09bd
0.1663268 0.15912785 -0.10178155 -0.0434633 0.015511881 -0.03463887 0.25002995 0.16576137
-0.06530926 -0.09156331 -0.10596607 0.110096656 0.015419002 -0.05396575 -0.04698252 0.37014574
0.031031415 -0.042865284 0.09978724 0.04189254 0.094806045 -0.046063993 0.16378306 -0.029669
-0.0802917 0.3912857 -0.10278837 -0.31587017 -0.10490683 0.15353052 0.088296615 0.03595567
-0.062509015 0.35363984 0.06575667 0.56429166 0.3280826 0.065381035 -0.43648687 0.02086157
0.14812051 0.050580107 0.2436774 -0.10839969 -0.03331688 0.19623564 -0.081622064 0.050185636
-0.311993 0.0042258864 -0.006882847 -0.38507435 0.13320154 0.034964785 0.12985954 -0.008660793
-0.010412459 0.047736276 0.44381726 0.0028280388 0.0996967 0.35358644 0.25119296 0.044007555
0.12654299 -0.17439668 -0.09680021 0.26668388 0.24533582 -0.22220032 -0.122255184 0.14084916
0.26881477 -0.0018234701 0.20844647 0.052039593 -0.10611197 0.100769036 -0.5040252 -0.08201754
-0.030906854 0.08125214 -0.008804356 -0.5391338 -0.07780234 0.1364113 0.1031026 -0.06736849
-0.20453604 0.06153347 0.02617325 0.1374416 -0.08072694 -0.033115517 -0.12403276 -0.0025493754
-0.22095677 -0.32574913 0.029766997 0.352879 0.18637584 -0.31281206 0.059556123 -0.10274202
0.13511686 -0.19220549 0.34637812 0.45001835 -0.19982891 0.07364689 -0.029661505 -0.034761705
0.092290774 -0.25400034 -0.31460217 0.20484117 -0.04976596 0.041068852 -0.06518601 0.18332183
0.3237005 -0.078968644 0.13319317 -0.092440024 0.12202939 -0.0044318633 -0.18479317 0.06150538
0.21091805 -0.044481594 0.013851743 0.21654262 -0.13840406 0.36957252 0.39940697 -0.30198786
-0.47705495 -0.10942569 0.42291018 0.076182425 0.29527068 0.3789216 0.039097168 0.029555628
-0.17662102 0.032356683 0.10185906 0.30171338 0.17480993 0.34231722 -0.08971373 -0.20942074
-0.001601721 -0.14912547 0.124717176 -0.00829746 -0.15768917 -0.06944295 0.0080285445 0.10276105
-0.0040891874 -0.10602322 -0.15336101 0.16062352 0.16736534 0.025020564 0.11828168 -0.2831458
-0.076635376 0.14941671 0.08393485 0.006299919 0.08222537 -0.064310595 -0.01256301 0.25908244
0.08500446 0.17096217 0.030187905 0.1570007 0.029702283 0.014455643 0.20599502 0.0832907
0.082528345 -0.15556626 -0.13097775 -0.08185844 0.22919874 0.21141687 -0.27589914 0.11448412
-0.2236475 0.029738488 -0.06893294 -0.04821103 -0.2583065 -0.029161297 0.23210321 0.2228906
-0.012048903 -0.067375965 -0.12361025 0.09298492 0.032916076 0.07047553 0.04185733 -0.00044097292
0.038052335 0.12113158 -0.06438746 -0.07815109 0.030543417 0.348517 0.18621768 0.16672513
-0.56225556 0.113017894 0.063528135 0.29288873 0.07985601 0.082891695 -0.058625996 0.011469166
0.358836 -0.34656936 0.49043092 0.123068534 -0.1927189 0.148653 0.4000735 -0.094312236
-0.21957928 -0.01836743 -0.023289902 0.023796448 -0.04428715 -0.16574505 -0.024674682 -0.18733467
-0.09906705 -0.2725498 0.004417829 -0.21286382 0.10247799 -0.073103204 -0.14123812 -0.046088178
0.22783932 0.47059622 0.023000663 0.024174249 0.0847768 0.23936723 0.14737035 -0.03368031

fc3.bias f4 [128]
00000000: 40b7 6d3f 4f60 b3be 1915 e0bd 2afd 033f
00000010: a0c0 023f d75d 35be 7202 9cbd 789a 433d
00000020: 21af 373d a8d4 be3d 409a a33e 57d1 f53c
00000030: d277 fabd 8af5 003f e9a8 e93e 3785 e63d
00000040: c12a 44be 64ef 463f 5ed0 98be 5757 bcbe
00000050: 9a2b 383c f01b 883f fba1 943f 96e7 893d
00000060: 2265 06be 810f ad3d 8de2 b43f e2f3 893d
00000070: 9cec 2bbe d3af 6dbe 9ad7 4fbd 17d4 2f3d
00000080: 9ba4 e13d 7240 7cbd 0015 b93f 55a5 213f
00000090: e13c 64bd 12e1 053f b9f3 8f3f 8d8a 8e3f
000000a0: c6d7 23bc fa4c 953d fbdd e7bc 5794 2abd
000000b0: af17 a3be 5ae2 12be 5e33 713f 4abf dcbd
000000c0: d294 b33f a395 ae3f 0e26 f2bd d39e 833f
000000d0: 84e3 04be ea7f 87bd f2b0 bebd 16ec 86be
000000e0: 0d25 d53f 9866 9b3f 0327 34be e4d8 aa3f
000000f0: 7cca fbbd 85d1 6a3c 88a9 aebd faae 883d
00000100: 30e5 8d3f a71d 40bd d749 2b3f c741 ce3f
00000110: fa23 393f 37d9 a13f 2c74 bebd 6539 59bd
00000120: fcc5 eabd 09ac ab3f 1837 e1bd af97 943d
00000130: 1b1d c73f 320e 9f3c 50e7 473f ea7a 563f
00000140: 8a89 67be 41c4 7c3f eb51 2fbd fab3 5c3c
00000150: 5453 7dbc 983b d23d 6604 9fbd a7e4 7bbd
00000160: 05be b33f 46d7 70be 120c 88bd a64c b7bc
00000170: 21df 94bd 6a94 a63d 3a8f a7bb b232 2d3d
00000180: c0da 133d b6ad 31be 14cd afbe ea46 cdbd
00000190: fd25 31be 0fde 80bd eb84 0bbd bc66 d4bd
000001a0: 83ca 863f 3eb8 e9bd f1ec a43f 50bb 54be
000001b0: 9e08 7b3d 2ad7 aebd 199c 703c 71cc c93d
000001c0: 4e6d 4e3f 15e7 9a3d 5df4 cd3d 2868 8c3f
000001d0: 1c33 93bd 139c c9bd 15ae f7bd 91f9 9bbd
000001e0: 9e85 8d3f e981 103d fb73 f139 3afc a63f
000001f0: 2131 c13f 98e3 80bd f036 02be 623c 2cbe
0.9285774 -0.35034415 -0.10941524 0.5155817 0.5107517 -0.17711578 -0.07617654 0.047754735
0.04484475 0.09317905 0.3195362 0.030007048 -0.12229885 0.5037466 0.4563668 0.112558775
-0.19156934 0.7770903 -0.29846472 -0.36785385 0.011240864 1.0633526 1.1611933 0.06733625
-0.13124517 0.08450223 1.4131638 0.0673597 -0.16789478 -0.23211603 -0.050742723 0.042926874
0.11017724 -0.061584897 1.4459534 0.631429 -0.05572212 0.52296555 1.1246253 1.1136032
-0.010000175 0.07290073 -0.02830409 -0.041645374 -0.31854007 -0.14344159 0.94219005 -0.10778673
1.4029791 1.3639416 -0.118236646 1.0282844 -0.12977415 -0.066161945 -0.093110934 -0.26351994
1.6651932 1.2140684 -0.17593007 1.334744 -0.1229448 0.01433218 -0.08528429 0.06673999
1.1085567 -0.04690328 0.66909546 1.6113824 0.7232052 1.2644414 -0.09299502 -0.05303325
-0.11463544 1.3411876 -0.109968364 0.07255494 1.5555757 0.019415949 0.7808733 0.837813
-0.2261106 0.9873696 -0.042802732 0.013470644 -0.0154617615 0.10265273 -0.07764511 -0.061497357
1.4042364 -0.2351962 -0.06642927 -0.022375416 -0.07269121 0.081337765 -0.0051135095 0.042284675
0.036097288 -0.17351422 -0.3433615 -0.100232914 -0.17299648 -0.06292354 -0.034062307 -0.103711575
1.0530552 -0.114120945 1.2884809 -0.20774579 0.061287515 -0.08537133 0.014685654 0.09853447
0.80635536 0.07563607 0.10056374 1.0969286 -0.07187483 -0.09844222 -0.120937504 -0.076159604
1.1056402 0.035280142 0.00046053514 1.3045723 1.5093118 -0.0629341 -0.1271627 -0.16819909

fc4.weight f4 [64, 128]
00000000: 6e6f 9ebd bb82 8fbd 56c7 6d3d 17aa 5f3c
00000010: 7e0f e0ba c4bf 8ebd 36a8 f43c e9d7 2ebc
00000020: 7226 3a3c ac9b e8bd 3e3e 8dbb e5c7 9f3d
00000030: 9fac 0ebd 2f84 5c3d 833b 233d e06f 57bd
00000040: 0015 2fbd bf77 a9bd e725 2dbd 7bcf 4cbd
00000050: 0c23 a0bc 7538 3bbe 9360 bb3b d09c 4cbd
00000060: 8a42 5c3b 11f4 d2bd 6dfc b6bd c44e ba3c
00000070: a4e7 89bd 8ac9 163d 5358 5dbc 430b afbd
00000080: 155b 7abd 143a 6f3c 0674 3fbe 50a3 e4bd
00000090: 0c2a 10bc d01c 07be 3db0 03bd a99f ad3b
000000a0: 0656 333d 9487 15bd dabe 94bb ff2d d2bd
000000b0: 58d3 583d e755 763b cf06 e43c db29 0cbd
000000c0: 43f8 ecbd 0776 fdbd 0aa7 303d 7dad ff3b
000000d0: c603 6abd 86a9 81bd 0cd8 b1bd 35af bf3b
000000e0: ac56 f8bd cebb b4bd b625 003d 65fc 8bbd
000000f0: 0de2 bd3d 7812 06bd 6921 9fbd 3396 d83c
00000100: 62e1 d8bc 8b17 ecbc 429b f33a b693 99bc
00000110: 9e20 0dbe db4d f7bb 590b a0bc 18c3 d93d
00000120: ef67 2bbd fc6d f1bd a81b fdbd 687e 9a3d
00000130: ef81 25be 7a78 52bd 55a9 83bd 36ff 853c
00000140: baf4 c4bd bf57 b3bd 33d5 8cbd ae42 12bd
00000150: 3841 d0bd 9a0a e2bd 23c1 f63d c26d 3bbd
00000160: d40a 9ebd 0cd4 9cbd 3b38 ca3b 5149 193d
00000170: 44bf dc3c e074 cb3c 413e 1ebc 4b6d 003d
00000180: 02aa 08bd 51a7 6cbc f716 c73c 20a2 3bbc
00000190: dae1 54bd 0caa 08bd 070e bebc 54fe 6ebd
000001a0: 452d 87bd f11e e83c 191e e6bd 94a4 80bd
000001b0: 6725 11be 4931 90bd 4072 96bc d26f 45bd
000001c0: 3c4a 94bd b390 7bbc 285e 4cbd a8fd 953a
000001d0: 0415 a03b d442 a63c ee98 ff3c 0907 8d3d
000001e0: fbbc 9539 33dd 773d 21bc 54bb 4ebe 2b3d
000001f0: 3e09 c5bc 947a 0e3d c034 aabd de57 3ebd
00000200: 4b89 483e 13f6 05be 5738 afbc 66e4 113e
00000210: 29ba f83c b92b 1e3b b409 77bc 83b8 f23d
00000220: c263 9cbd eebe 643d 11ea fc3d 1d07 e23d
00000230: d60c 45bd 36b6 413e 0932 493e c419 1f3d
00000240: bf80 da3d 8cb1 dc3d 83f4 553c 3e22 b1bd
00000250: 3103 c73d 8ccb 433e 0ae4 2d3e ea93 4c3e
00000260: e689 ee3c 85d5 da3d 5698 7e3e 8fde 053e
00000270: 843a 16be fc77 cc3d 4d40 a53c 0717 623d
00000280: 4e0e 0fbd da4e 1abd c114 1e3e 01f5 043e
00000290: 8829 c33d 8668 053e 36eb a33e 241d 2a3e
000002a0: 9aea ce3d 2947 ee3d b2af 173d f447 3abb
000002b0: 4a34 a0bd ebaf 553d bddc 723e 2c0a 463e
000002c0: 5c48 bd3d 3733 923e b2dd c6bd 449c 483e
000002d0: d38e ecbd 897c 093d fb36 f13d 3e10 1cbc
000002e0: b497 7a3e 2fa1 ae3e 629a 04bd 9364 953d
000002f0: 3555 093d 5d76 4f3d 0466 a13c 2a1e a53d
00000300: 5517 093e b4e1 6ebc 77d7 753e e97c af3e
00000310: 0bf0 393e 3c0e 1c3e 0bc2 ddbd 31d4 9b3c
00000320: 0ab2 e03a e458 953e b8bc c23c 2908 8f3d
00000330: 5d23 8c3e 82b5 de3c e346 913e 0de5 323e
00000340: 1e55 d83c 0621 213e b054 403d 8d38 ba3d
00000350: 6e90 e83c a224 ff3c 4311 a73b 9fde 0dbd
00000360: 7cee 593e 72a6 533d c00f e33c c6e0 9d3d
00000370: 580a b23d f1a3 89bb ef39 5dbc 053f cb3d
00000380: 3082 1b3d 2d8b d53d ffa9 a13d d5ff d43c
00000390: 615a e93d 4847 6e3d b855 30bd 0e01 73bd
000003a0: e040 8e3e 04d5 0e3d d418 903e b424 02bd
000003b0: cf72 0d3c 1011 f03d 64b0 203d 6961 b63d
000003c0: bb8b 5a3e 1be1 993d 70da 963c b2c3 a53e
000003d0: f284 c2b9 9857 123d 3878 503d 928a 7b3d
000003e0: ae99 8c3e 84c4 ae3d 9139 a13d cfab 3a3e
000003f0: f614 693e ec58 d73d 842c 733c cd69 45bd
-0.07736097 -0.07007357 0.05805143 0.013651392 -0.0017094461 -0.0697017 0.029865365 -0.010671594
0.011361705 -0.11357817 -0.0043103984 0.07801799 -0.034832593 0.053836998 0.039851677 -0.052596927
-0.042744637 -0.08274793 -0.042272475 -0.050002556 -0.019547962 -0.18283255 0.0057182997 -0.049954236
0.0033608996 -0.10300458 -0.08934865 0.022742637 -0.06733635 0.036813296 -0.013509828 -0.0854707
-0.06112202 0.014601249 -0.18696603 -0.11163962 -0.008799087 -0.13194585 -0.032150496 0.005298574
0.04378321 -0.03650625 -0.004539353 -0.10262679 0.052935928 0.0037587823 0.027835278 -0.034219604
-0.1157079 -0.123760276 0.04312805 0.007802664 -0.057132505 -0.06331162 -0.08683786 0.0058497437
-0.12125906 -0.088248834 0.031285964 -0.0683525 0.092716314 -0.032732457 -0.07770044 0.026438808
-0.026474658 -0.02881982 0.0018585699 -0.018747192 -0.13781974 -0.007547123 -0.019536661 0.10632914
-0.041847166 -0.11788556 -0.12358791 0.07543641 -0.16162847 -0.051384427 -0.06428782 0.016357046
-0.096169904 -0.087569706 -0.06876602 -0.035708122 -0.101686895 -0.11037178 0.12048557 -0.04575897
-0.07716909 -0.07657632 0.006171254 0.037423436 0.026946671 0.024836004 -0.009658397 0.03135423
-0.033365257 -0.014444188 0.024302943 -0.011452228 -0.0519732 -0.033365294 -0.023200048 -0.058348015
-0.06600431 0.028335067 -0.112362094 -0.06281391 -0.14174424 -0.070406504 -0.018365026 -0.048202343
-0.072407216 -0.015354323 -0.049894482 0.0011443393 0.0048853178 0.020295538 0.031200852 0.068861075
0.00028560296 0.060513686 -0.0032460766 0.041929536 -0.024052259 0.03478487 -0.083108425 -0.046470515
0.19583623 -0.13082151 -0.02138917 0.14247283 0.030362206 0.0024134947 -0.015077997 0.11851599
-0.07636215 0.055846147 0.12349332 0.11036513 -0.048107944 0.18917164 0.19647993 0.03884293
0.106690876 0.10776052 0.013058784 -0.08649109 0.097174056 0.19120616 0.16981521 0.199783
0.02911849 0.10685257 0.24862799 0.1307318 -0.1467076 0.09983823 0.020172263 0.05519774
-0.03492575 -0.037672855 0.15437604 0.12984087 0.09529406 0.13028154 0.3201539 0.16612679
0.101033404 0.116346665 0.03703279 -0.0028424235 -0.07822473 0.05216972 0.23717017 0.19339818
0.09242317 0.285547 -0.09710254 0.1959086 -0.11550679 0.03356603 0.11778065 -0.009525357
0.24471933 0.34107348 -0.032373793 0.07294574 0.033528525 0.05064999 0.019701965 0.08062394
0.13387807 -0.014580179 0.24007975 0.34274986 0.18157975 0.15239805 -0.108280264 0.01902208
0.0017142904 0.2916938 0.023771629 0.06983978 0.2737073 0.027186159 0.28374395 0.17470188
0.026407775 0.15735254 0.046955764 0.090928175 0.028389182 0.031145398 0.0050984933 -0.034636136
0.21282381 0.051672406 0.027717471 0.07708888 0.08693379 -0.0042004515 -0.013502582 0.099241294
0.037965953 0.10426936 0.07893752 0.026000896 0.113941915 0.058173448 -0.043050498 -0.059327178
0.2778387 0.034871116 0.28143942 -0.031773284 0.0086333295 0.117220044 0.03923072 0.08905298
0.21342365 0.075136386 0.018414706 0.32375866 -0.00037101615 0.035728067 0.0508959 0.061411448
0.27460998 0.08533576 0.07872308 0.18229602 0.22761902 0.105150074 0.014842156 -0.048196603

fc4.bias f4 [64]
00000000: 8c62 99bd d640 5340 6293 e0bd dcbe ca3d
00000010: ceef abbd c885 dabd 5728 c03d 0928 70be
00000020: 952d adbd 4d1f 0240 3531 4e40 8d93 68be
00000030: 05b6 8ebe d7fe b3be 4fcc bcbd bac8 e23e
00000040: 1905 1cbe fd5d 45be 912a bc3f fde4 6fbe
00000050: 7f27 b6bd d631 d2bd bf2c 0640 f330 35bd
00000060: e1a1 47bd e0b5 4440 edd8 a13c bbf7 aa3e
00000070: b8aa 27bd ac1d 013e ad5d 4bbf 6ec8 fdbc
00000080: 50f9 8c3f 0c65 afbd 0ad8 c13f cabd 5d3d
00000090: 08b9 c23e 1438 913d d935 a3bc e8f9 343f
000000a0: 44d7 993e f718 623f 4c5d 8f3e d66e fe3d
000000b0: e3bb afbc fbdd ef3e 0491 af3e 516c 583e
000000c0: ba6f 8ebe ebb7 9dbe 4a9b 8b3d 5e1f 003f
000000d0: fb16 a43f 1f92 123f 3b0b 41be 5344 81be
000000e0: 52f5 1d3f b091 0abf 0282 9a3f b722 99be
000000f0: 2bc4 84be dce0 b93f 638a 103d 52d4 4a3e
-0.074894994 3.3008323 -0.10965611 0.09899685 -0.083953485 -0.10670048 0.09382694 -0.23452772
-0.0845596 2.0331604 3.2217534 -0.22712536 -0.27873245 -0.35155365 -0.09218656 0.44293767
-0.1523632 -0.19274135 1.470049 -0.23427196 -0.08894252 -0.10263412 2.096481 -0.044236135
-0.048738364 3.0736008 0.019756759 0.33392128 -0.040934294 0.12608975 -0.7943981 -0.030979361
1.1013584 -0.08564195 1.5144055 0.054136075 0.38031793 0.07090774 -0.019923138 0.70693827
0.30047047 0.88319343 0.28000867 0.12423484 -0.021451896 0.46849045 0.34290326 0.2113507
-0.27819616 -0.3080438 0.068167284 0.5004786 1.2819513 0.57254213 -0.1885194 -0.2524744
0.61702454 -0.5412855 1.2070925 -0.29909298 -0.25930914 1.4521747 0.035288226 0.19807556

fc5.weight f4 [4, 64]
00000000: 44f3 e1bd 2b29 2dbe ca04 d43d c78f babd
00000010: b428 babd 0a8b 263e 58b1 5b3d 41fc 013e
00000020: 0570 a93c 7d8f 85bd 44cc 3ebe ddc9 0ebd
00000030: 01d8 b83d b04a da3d d8f4 bfbd 9ece a53c
00000040: 5fc6 263d 68a4 28bc 856e 0cbe 8096 23be
00000050: 179a 22bc 3ac5 edbc cedf 04be 15ef 19be
00000060: b596 8b3d f185 07be 2107 883d 71d5 393d
00000070: 0b40 903b 7d2c b43b f2af 863e 2512 b2bd
00000080: 09f7 eb3d 6f00 a03d be9f 32be fde2 14be
00000090: df2a ddbd 249a bdbd 5a73 93bd 8d7f da3d
000000a0: 7ae5 9fbc 28ba f83d 1aea 37be a7cf 08bc
000000b0: accf af3c 1169 1bbe 2b19 05bd c0d1 c0bc
000000c0: 16dd b4bd 80f9 bfbb d21a 973d e58c a0bc
000000d0: 15fd 753d 5b1f 6dbe 1cac 05bd 9a7b c9bc
000000e0: b193 b837 42d9 38be eab1 c2bd e11a 1d3e
000000f0: dc54 c8bc b031 8ebd 7fc0 0cbb 3f9f 0fbe
00000100: d646 85bd 9e5b 48be b4bb 4d3e c271 9cbd
00000110: b2f1 4fbc bf9e 163d 23dd 33bd 153c 573d
00000120: c053 18bd 177a 1abe c3f6 5fbe 6f7e 0b3c
00000130: 8449 41be 0163 a4bc 3310 e93d 52bd 1d3d
00000140: 1ca9 103e 5829 713d 60b5 18be 629a 083e
00000150: 4105 9c3d 49b2 cdbd 898c 96bd 9e54 76bc
00000160: 4600 5fbd 088c 57be b865 6c3d 54ba 6f3d
00000170: ecce 443e 11a6 dc3d 2982 923e 2971 7bbd
00000180: 5be0 cdbd 8613 223d 3f9f 3bbe 42d5 8abd
00000190: 03b8 29bd dd37 d03d 34d2 04be 61f7 f3bc
000001a0: d8b6 4abe 6190 a8bd f800 b73d ab99 01be
000001b0: 5ac8 4b3d 6cd1 ddbd 0727 30be e5e0 1bbe
000001c0: 6412 02bd 0143 663d b935 1b3d 6b75 40be
000001d0: b199 0b3e 9888 d83d 93e5 d1bc e935 ac38
000001e0: 3a99 1b3c 7cf9 a5bd 16b6 26be 6591 17bc
000001f0: b158 263d 41cc afbd ae68 01bc 3feb e33d
00000200: 7a3c 473d 0f14 20be e4e4 c6bc f867 123c
00000210: a8b3 4b3d 04cb 23bd 22ab c2be 25d5 b4bd
00000220: 0240 633d 9b29 023b f408 e3bd 9786 743d
00000230: 0a6d ffbd 8952 e2bc 49a8 cbbb 4dad ddbe
00000240: 315f b3bd 24c3 e33d f5c0 dfbd 124c 653e
00000250: 8c81 a13d 4e21 b13d 9ac1 2abe 1f81 4d3d
00000260: aff3 24bd abae e2bd cdb8 913d 5782 0fbe
00000270: 4adc a73d 4ece 0d3e 85fa 953d cffb 69bd
00000280: 310a e4bd daeb a43c b776 29be d49f 14bd
00000290: 9ae2 0fbd 36f4 98bd bddf b33c 1181 85bd
000002a0: 66dc d1bd 494c e8bd 6209 07bd d8d3 0ebd
000002b0: cd7d a6bc 7af9 0bbe 6c1a 973d f892 c43d
000002c0: c9e3 6bbe 100b 0b3c 10cc 2abe 14ee 4e3d
000002d0: e03e dbbe 3870 0c3c b4f4 20bc 7637 12bd
000002e0: fb92 9abe 1059 6d3d 69cb f0bd 1c5d ae3d
000002f0: 3ec9 033d 81bc 50be e05e f83c 6773 debc
00000300: fc56 763d d569 52be d147 883d 74f3 bebd
00000310: 2969 b33c 4aa3 78bd 3d80 2f3d 005a 523c
00000320: 98e2 993d 2453 95bd 4b31 43be 079a d03c
00000330: 8135 95bd e44e b6bc 1922 5f3d c153 dfbc
00000340: 3c21 febb 5b4f 8c3d 76e7 32bd 2f78 583c
00000350: 73dc 5abd 97ce 933b 9873 a8bd e66f b3ba
00000360: 0e1b cb3b 7679 30be f117 17be dbd0 94bd
00000370: 9505 29be bd50 27bd 611d 3dbd d14d 253d
00000380: 0c29 ae3b 6f03 07be 8796 46bd cfa3 59bd
00000390: 8026 a4bd 849f d2bc 13e1 653d 2ff8 11be
000003a0: 9dc1 f1bd dddd 49be 649d 2dbe 4f33 fcbc
000003b0: 1734 e9bd e8cd 3dbb 1b35 733c 2522 9ebe
000003c0: 7af6 bc3d 9356 a7bc b57b 1bbe 6c5f 10bd
000003d0: ea2c a4bc f9e0 183c 83ac 073c cd2e abbc
000003e0: c9ab 1ebe 604d a0bc ac95 1bbe 6878 8c3c
000003f0: e78b 0f3d bb7e 92bd 364b b5bd 781a f5bd
-0.11032727 -0.16910236 0.10352476 -0.091094546 -0.09089795 0.16263977 0.053635925 0.12693883
0.020683298 -0.06521509 -0.18632609 -0.03486048 0.090255745 0.10658777 -0.09372872 0.020240124
0.040716525 -0.010293104 -0.13714035 -0.1597538 -0.009924433 -0.029024709 -0.12976 -0.15032609
0.068158545 -0.13234688 0.06641985 0.04536957 0.0044021658 0.0054984675 0.2630611 -0.08694867
0.115217276 0.07812583 -0.1744375 -0.14539714 -0.10799193 -0.092579156 -0.07199736 0.1066886
-0.019518603 0.121448815 -0.17960396 -0.008350289 0.02146133 -0.15176798 -0.032494705 -0.023537517
-0.08831231 -0.0058586 0.073781624 -0.019598434 0.06005581 -0.23156492 -0.03263484 -0.02459507
2.2003283e-05 -0.18051627 -0.09506591 0.15342285 -0.024454527 -0.06943071 -0.0021477041 -0.14025591
-0.065076515 -0.19566199 0.20091134 -0.07638885 -0.012691902 0.036772486 -0.043912064 0.052547533
-0.037189245 -0.15085636 -0.21871476 0.008514031 -0.188757 -0.02006674 0.11380043 0.038510628
0.1412701 0.05887732 -0.14912939 0.13340142 0.076181896 -0.10043771 -0.07351024 -0.015034823
-0.05444362 -0.21049511 0.057714194 0.058527306 0.1921956 0.10773862 0.2861493 -0.061387215
-0.10052558 0.0395694 -0.18322466 -0.06778957 -0.041435253 0.10166905 -0.12970811 -0.029781045
-0.19796312 -0.08230663 0.08935732 -0.12656276 0.049751617 -0.1083096 -0.17202388 -0.15222509
-0.03175582 0.056216244 0.03789303 -0.18794791 0.13632847 0.10572928 -0.025622165 8.211641e-05
0.009496981 -0.08104226 -0.16280398 -0.009250973 0.040611926 -0.0858388 -0.007898493 0.11128854
0.04864166 -0.15632652 -0.024279065 0.008935921 0.04973188 -0.039988533 -0.3802119 -0.088297166
0.055480964 0.0019861225 -0.11085692 0.059698667 -0.124719694 -0.027627246 -0.0062151295 -0.4329628
-0.08758391 0.111212045 -0.109254755 0.223923 0.07886037 0.086489305 -0.16675416 0.050171968
-0.040271457 -0.110684715 0.07115326 -0.14014564 0.08196314 0.1384823 0.073231734 -0.05712491
-0.11134756 0.020131994 -0.16549192 -0.036285236 -0.035128213 -0.074684545 0.021957273 -0.06518758
-0.10247116 -0.11342675 -0.032967933 -0.03487 -0.020323658 -0.13669387 0.073780864 0.095983446
-0.23036112 0.008486524 -0.16679406 0.050520018 -0.42821407 0.008571677 -0.009823967 -0.035697423
-0.30190262 0.057946265 -0.117575474 0.08513853 0.03217434 -0.20384409 0.030318677 -0.027154638
0.06014155 -0.20548184 0.06654323 -0.09323779 0.02190073 -0.0607026 0.042846907 0.0128388405
0.075139225 -0.072912484 -0.19061773 0.025464071 -0.07285596 -0.022254415 0.054475877 -0.027261617
-0.0077554267 0.06851073 -0.04367777 0.013212248 -0.053432893 0.0045107114 -0.08225173 -0.0013689965
0.0061982935 -0.17233834 -0.14755227 -0.072663985 -0.16506036 -0.040848482 -0.046170596 0.040357415
0.0053149518 -0.13184904 -0.048483398 -0.053134736 -0.08015156 -0.025710829 0.05612285 -0.14254831
-0.11804507 -0.1971354 -0.16954571 -0.030786185 -0.113868885 -0.002896184 0.014844204 -0.30885425
0.09226699 -0.020427024 -0.15183909 -0.03524725 -0.020040948 0.009330981 0.008280876 -0.02089634
-0.15495218 -0.019568145 -0.15193814 0.017147258 0.03504553 -0.07153078 -0.08852236 -0.11967939

fc5.bias f4 [4]
00000000: b8e7 cbbf 510b bebf 9671 c0bf 1d98 dfbf
-1.593009 -1.4847203 -1.5034664 -1.7468296
